…
fication model).\n","Some weights of ElectraForSequenceClassification were not initialized from the model checkpoint at monologg/koelectra-base-v3-discriminator and are newly initialized: ['classifier.out_proj.bias', 'classifier.dense.weight', 'classifier.dense.bias', 'classifier.out_proj.weight']\n","You should probably TRAIN this model on a down-stream task to be able to use it for predictions and inference.\n"]},{"output_type":"stream","name":"stdout","text":["ElectraForSequenceClassification(\n","  (electra): ElectraModel(\n","    (embeddings): ElectraEmbeddings(\n","      (word_embeddings): Embedding(35000, 768, padding_idx=0)\n","      (position_embeddings): Embedding(512, 768)\n","      (token_type_embeddings): Embedding(2, 768)\n","      (LayerNorm): LayerNorm((768,), eps=1e-12, elementwise_affine=True)\n","      (dropout): Dropout(p=0.1, inplace=False)\n","    )\n","    (encoder): ElectraEncoder(\n","      (layer): ModuleList(\n","        (0-11): 12 x ElectraLayer(\n","          (attention): ElectraAttention(\n","            (self): ElectraSelfAttention(\n","              (query): Linear(in_features=768, out_features=768, bias=True)\n","              (key): Linear(in_features=768, out_features=768, bias=True)\n","              (value): Linear(in_features=768, out_features=768, bias=True)\n","              (dropout): Dropout(p=0.1, inplace=False)\n","            )\n","            (output): ElectraSelfOutput(\n","              (dense): Linear(in_features=768, out_features=768, bias=True)\n","              (LayerNorm): LayerNorm((768,), eps=1e-12, elementwise_affine=True)\n","              (dropout): Dropout(p=0.1, inplace=False)\n","            )\n","          )\n","          (intermediate): ElectraIntermediate(\n","            (dense): Linear(in_features=768, out_features=3072, bias=True)\n","            (intermediate_act_fn): GELUActivation()\n","          )\n","          (output): ElectraOutput(\n","            (dense): Linear(in_features=3072, out_features=768, bias=True)\n","            (LayerNorm): LayerNorm((768,), eps=1e-12, elementwise_affine=True)\n","            (dropout): Dropout(p=0.1, inplace=False)\n","          )\n","        )\n","      )\n","    )\n","  )\n","  (classifier): ElectraClassificationHead(\n","    (dense): Linear(in_features=768, out_features=768, bias=True)\n","    (dropout): Dropout(p=0.1, inplace=False)\n","    (out_proj): Linear(in_features=768, out_features=2, bias=True)\n","  )\n",")\n","----------------------------------------------------------------------------------------------------\n","Current device: cuda:0\n"]}]},{"cell_type":"code","source":["display(train[:5])"],"metadata":{"colab":{"base_uri":"https://localhost:8080/","height":206},"id":"NU0tlAIA8WaY","executionInfo":{"status":"ok","timestamp":1684663201162,"u
…
